…
d of medicine and dentistry and ongoing developments of NMR spectroscopy for future applications has been discussed.'", "The paper titled 'Nuclear magnetic resonance spectroscopy for medical and dental applications: a comprehensive review' with the given abstract could be cited in the paper: 'A review on the applications of nuclear magnetic resonance (NMR) in the oil and gas industry: laboratory and field-scale measurements'.")}
nli_model CrossEncoder(
  (model): DebertaV2ForSequenceClassification(
    (deberta): DebertaV2Model(
      (embeddings): DebertaV2Embeddings(
        (word_embeddings): Embedding(128100, 768, padding_idx=0)
        (LayerNorm): LayerNorm((768,), eps=1e-07, elementwise_affine=True)
        (dropout): StableDropout()
      )
      (encoder): DebertaV2Encoder(
        (layer): ModuleList(
          (0): DebertaV2Layer(
            (attention): DebertaV2Attention(
              (self): DisentangledSelfAttention(
                (query_proj): Linear(in_features=768, out_features=768, bias=True)
                (key_proj): Linear(in_features=768, out_features=768, bias=True)
                (value_proj): Linear(in_features=768, out_features=768, bias=True)
                (pos_dropout): StableDropout()
                (dropout): StableDropout()
              )
              (output): DebertaV2SelfOutput(
                (dense): Linear(in_features=768, out_features=768, bias=True)
                (LayerNorm): LayerNorm((768,), eps=1e-07, elementwise_affine=True)
                (dropout): StableDropout()
              )
            )
            (intermediate): DebertaV2Intermediate(
              (dense): Linear(in_features=768, out_features=3072, bias=True)
              (intermediate_act_fn): GELUActivation()
            )
            (output): DebertaV2Output(
              (dense): Linear(in_features=3072, out_features=768, bias=True)
              (LayerNorm): LayerNorm((768,), eps=1e-07, elementwise_affine=True)
              (dropout): StableDropout()
            )
          )
          (1): DebertaV2Layer(
            (attention): DebertaV2Attention(
              (self): DisentangledSelfAttention(
                (query_proj): Linear(in_features=768, out_features=768, bias=True)
                (key_proj): Linear(in_features=768, out_features=768, bias=True)
                (value_proj): Linear(in_features=768, out_features=768, bias=True)
                (pos_dropout): StableDropout()
                (dropout): StableDropout()
              )
              (output): DebertaV2SelfOutput(
                (dense): Linear(in_features=768, out_features=768, bias=True)
                (LayerNorm): LayerNorm((768,), eps=1e-07, elementwise_affine=True)
                (dropout): StableDropout()
              )
            )
            (intermediate): DebertaV2Intermediate(
              (dense): Linear(in_features=768, out_features=3072, bias=True)
              (intermediate_act_fn): GELUActivation()
            )
            (output): DebertaV2Output(
              (dense): Linear(in_features=3072, out_features=768, bias=True)
              (LayerNorm): LayerNorm((768,), eps=1e-07, elementwise_affine=True)
              (dropout): StableDropout()
            )
          )
          (2): DebertaV2Layer(
            (attention): DebertaV2Attention(
              (self): DisentangledSelfAttention(
                (query_proj): Linear(in_features=768, out_features=768, bias=True)
                (key_proj): Linear(in_features=768, out_features=768, bias=True)
                (value_proj): Linear(in_features=768, out_features=768, bias=True)
                (pos_dropout): StableDropout()
                (dropout): StableDropout()
              )
              (output): DebertaV2SelfOutput(
                (dense): Linear(in_features=768, out_features=768, bias=True)
                (LayerNorm): LayerNorm((768,), eps=1e-07, elementwise_affine=True)
                (dropout): StableDropout()
              )
            )
            (intermediate): DebertaV2Intermediate(
              (dense): Linear(in_features=768, out_features=3072, bias=True)
              (intermediate_act_fn): GELUActivation()
            )
            (output): DebertaV2Output(
              (dense): Linear(in_features=3072, out_features=768, bias=True)
              (LayerNorm): LayerNorm((768,), eps=1e-07, elementwise_affine=True)
              (dropout): StableDropout()
            )
          )
          (3): DebertaV2Layer(
            (attention): DebertaV2Attention(
              (self): DisentangledSelfAttention(
                (query_proj): Linear(in_features=768, out_features=768, bias=True)
                (key_proj): Linear(in_features=768, out_features=768, bias=True)
                (value_proj): Linear(in_features=768, out_features=768, bias=True)
                (pos_dropout): StableDropout()
                (dropout): StableDropout()
              )
              (output): DebertaV2SelfOutput(
                (dense): Linear(in_features=768, out_features=768, bias=True)
                (LayerNorm): LayerNorm((768,), eps=1e-07, elementwise_affine=True)
                (dropout): StableDropout()
              )
            )
            (intermediate): DebertaV2Intermediate(
              (dense): Linear(in_features=768, out_features=3072, bias=True)
              (intermediate_act_fn): GELUActivation()
            )
            (output): DebertaV2Output(
              (dense): Linear(in_features=3072, out_features=768, bias=True)
              (LayerNorm): LayerNorm((768,), eps=1e-07, elementwise_affine=True)
              (dropout): StableDropout()
            )
          )
          (4): DebertaV2Layer(
            (attention): DebertaV2Attention(
              (self): DisentangledSelfAttention(
                (query_proj): Linear(in_features=768, out_features=768, bias=True)
                (key_proj): Linear(in_features=768, out_features=768, bias=True)
                (value_proj): Linear(in_features=768, out_features=768, bias=True)
                (pos_dropout): StableDropout()
                (dropout): StableDropout()
              )
              (output): DebertaV2SelfOutput(
                (dense): Linear(in_features=768, out_features=768, bias=True)
                (LayerNorm): LayerNorm((768,), eps=1e-07, elementwise_affine=True)
                (dropout): StableDropout()
              )
            )
            (intermediate): DebertaV2Intermediate(
              (dense): Linear(in_features=768, out_features=3072, bias=True)
              (intermediate_act_fn): GELUActivation()
            )
            (output): DebertaV2Output(
              (dense): Linear(in_features=3072, out_features=768, bias=True)
              (LayerNorm): LayerNorm((768,), eps=1e-07, elementwise_affine=True)
              (dropout): StableDropout()
            )
          )
          (5): DebertaV2Layer(
            (attention): DebertaV2Attention(
              (self): DisentangledSelfAttention(
                (query_proj): Linear(in_features=768, out_features=768, bias=True)
                (key_proj): Linear(in_features=768, out_features=768, bias=True)
                (value_proj): Linear(in_features=768, out_features=768, bias=True)
                (pos_dropout): StableDropout()
                (dropout): StableDropout()
              )
              (output): DebertaV2SelfOutput(
                (dense): Linear(in_features=768, out_features=768, bias=True)
                (LayerNorm): LayerNorm((768,), eps=1e-07, elementwise_affine=True)
                (dropout): StableDropout()
              )
            )
            (intermediate): DebertaV2Intermediate(
              (dense): Linear(in_features=768, out_features=3072, bias=True)
              (intermediate_act_fn): GELUActivation()
            )
            (output): DebertaV2Output(
              (dense): Linear(in_features=3072, out_features=768, bias=True)
              (LayerNorm): LayerNorm((768,), eps=1e-07, elementwise_affine=True)
              (dropout): StableDropout()
            )
          )
          (6): DebertaV2Layer(
            (attention): DebertaV2Attention(
              (self): DisentangledSelfAttention(
                (query_proj): Linear(in_features=768, out_features=768, bias=True)
                (key_proj): Linear(in_features=768, out_features=768, bias=True)
                (value_proj): Linear(in_features=768, out_features=768, bias=True)
                (pos_dropout): StableDropout()
                (dropout): StableDropout()
              )
              (output): DebertaV2SelfOutput(
                (dense): Linear(in_features=768, out_features=768, bias=True)
                (LayerNorm): LayerNorm((768,), eps=1e-07, elementwise_affine=True)
                (dropout): StableDropout()
              )
            )
            (intermediate): DebertaV2Intermediate(
              (dense): Linear(in_features=768, out_features=3072, bias=True)
              (intermediate_act_fn): GELUActivation()
            )
            (output): DebertaV2Output(
              (dense): Linear(in_features=3072, out_features=768, bias=True)
              (LayerNorm): LayerNorm((768,), eps=1e-07, elementwise_affine=True)
              (dropout): StableDropout()
            )
          )
          (7): DebertaV2Layer(
            (attention): DebertaV2Attention(
              (self): DisentangledSelfAttention(
                (query_proj): Linear(in_features=768, out_features=768, bias=True)
                (key_proj): Linear(in_features=768, out_features=768, bias=True)
                (value_proj): Linear(in_features=768, out_features=768, bias=True)
                (pos_dropout): StableDropout()
                (dropout): StableDropout()
              )
              (output): DebertaV2SelfOutput(
                (dense): Linear(in_features=768, out_features=768, bias=True)
                (LayerNorm): LayerNorm((768,), eps=1e-07, elementwise_affine=True)
                (dropout): StableDropout()
              )
            )
            (intermediate): DebertaV2Intermediate(
              (dense): Linear(in_features=768, out_features=3072, bias=True)
              (intermediate_act_fn): GELUActivation()
            )
            (output): DebertaV2Output(
              (dense): Linear(in_features=3072, out_features=768, bias=True)
              (LayerNorm): LayerNorm((768,), eps=1e-07, elementwise_affine=True)
              (dropout): StableDropout()
            )
          )
          (8): DebertaV2Layer(
            (attention): DebertaV2Attention(
              (self): DisentangledSelfAttention(
                (query_proj): Linear(in_features=768, out_features=768, bias=True)
                (key_proj): Linear(in_features=768, out_features=768, bias=True)
                (value_proj): Linear(in_features=768, out_features=768, bias=True)
                (pos_dropout): StableDropout()
                (dropout): StableDropout()
              )
              (output): DebertaV2SelfOutput(
                (dense): Linear(in_features=768, out_features=768, bias=True)
                (LayerNorm): LayerNorm((768,), eps=1e-07, elementwise_affine=True)
                (dropout): StableDropout()
              )
            )
            (intermediate): DebertaV2Intermediate(
              (dense): Linear(in_features=768, out_features=3072, bias=True)
              (intermediate_act_fn): GELUActivation()
            )
            (output): DebertaV2Output(
              (dense): Linear(in_features=3072, out_features=768, bias=True)
              (LayerNorm): LayerNorm((768,), eps=1e-07, elementwise_affine=True)
              (dropout): StableDropout()
            )
          )
          (9): DebertaV2Layer(
            (attention): DebertaV2Attention(
              (self): DisentangledSelfAttention(
                (query_proj): Linear(in_features=768, out_features=768, bias=True)
                (key_proj): Linear(in_features=768, out_features=768, bias=True)
                (value_proj): Linear(in_features=768, out_features=768, bias=True)
                (pos_dropout): StableDropout()
                (dropout): StableDropout()
              )
              (output): DebertaV2SelfOutput(
                (dense): Linear(in_features=768, out_features=768, bias=True)
                (LayerNorm): LayerNorm((768,), eps=1e-07, elementwise_affine=True)
                (dropout): StableDropout()
              )
            )
            (intermediate): DebertaV2Intermediate(
              (dense): Linear(in_features=768, out_features=3072, bias=True)
              (intermediate_act_fn): GELUActivation()
            )
            (output): DebertaV2Output(
              (dense): Linear(in_features=3072, out_features=768, bias=True)
              (LayerNorm): LayerNorm((768,), eps=1e-07, elementwise_affine=True)
              (dropout): StableDropout()
            )
          )
          (10): DebertaV2Layer(
            (attention): DebertaV2Attention(
              (self): DisentangledSelfAttention(
                (query_proj): Linear(in_features=768, out_features=768, bias=True)
                (key_proj): Linear(in_features=768, out_features=768, bias=True)
                (value_proj): Linear(in_features=768, out_features=768, bias=True)
                (pos_dropout): StableDropout()
                (dropout): StableDropout()
              )
              (output): DebertaV2SelfOutput(
                (dense): Linear(in_features=768, out_features=768, bias=True)
                (LayerNorm): LayerNorm((768,), eps=1e-07, elementwise_affine=True)
                (dropout): StableDropout()
              )
            )
            (intermediate): DebertaV2Intermediate(
              (dense): Linear(in_features=768, out_features=3072, bias=True)
              (intermediate_act_fn): GELUActivation()
            )
            (output): DebertaV2Output(
              (dense): Linear(in_features=3072, out_features=768, bias=True)
              (LayerNorm): LayerNorm((768,), eps=1e-07, elementwise_affine=True)
              (dropout): StableDropout()
            )
          )
          (11): DebertaV2Layer(
            (attention): DebertaV2Attention(
              (self): DisentangledSelfAttention(
                (query_proj): Linear(in_features=768, out_features=768, bias=True)
                (key_proj): Linear(in_features=768, out_features=768, bias=True)
                (value_proj): Linear(in_features=768, out_features=768, bias=True)
                (pos_dropout): StableDropout()
                (dropout): StableDropout()
              )
              (output): DebertaV2SelfOutput(
                (dense): Linear(in_features=768, out_features=768, bias=True)
                (LayerNorm): LayerNorm((768,), eps=1e-07, elementwise_affine=True)
                (dropout): StableDropout()
              )
            )
            (intermediate): DebertaV2Intermediate(
              (dense): Linear(in_features=768, out_features=3072, bias=True)
              (intermediate_act_fn): GELUActivation()
            )
            (output): DebertaV2Output(
              (dense): Linear(in_features=3072, out_features=768, bias=True)
              (LayerNorm): LayerNorm((768,), eps=1e-07, elementwise_affine=True)
              (dropout): StableDropout()
            )
          )
        )
        (rel_embeddings): Embedding(512, 768)
        (LayerNorm): LayerNorm((768,), eps=1e-07, elementwise_affine=True)
      )
    )
    (pooler): ContextPooler(
      (dense): Linear(in_features=768, out_features=768, bias=True)
      (dropout): StableDropout()
    )
    (classifier): Linear(in_features=768, out_features=3, bias=True)
    (dropout): StableDropout()
  )
  (activation_fn): Identity()
)
Eval relevanve paper
{1: 0, 2: 1, 3: 2, 4: 3, 5: 4, 6: 5, 7: 'Akkurt R, Marsala AF, Seifert D, Al-Harbi A, Buenrostro C, Kruspe T, Thern HF, Kurz G, Blanz M, Kroken A (2009)', 8: 7, 9: 8, 10: 'Al-Garadi K, El-Husseiny A, Elsayed M, Connolly P, Mahmoud M, Johns M, Adebayo A (2022)', 11: 10
…
